parameters.npy (npy, 144480 bytes, 1 tensors)

array f8 [18050]
000000 c4 5b c7 ce dd 07 a6 bf e0 72 f5 17 8a f6 d2 bf
       -0.04302876614718046 -0.2962975725147725
000010 03 1a ad 98 71 dc f0 bf 04 af e4 b4 a5 f7 db bf
       -1.0538192714608392 -0.4369901911293115
000020 f1 a7 b6 3c 3b 27 e5 3f 9c 31 c3 58 19 f4 d4 bf
       0.6610389886675404 -0.32739862125597496
000030 f2 19 69 e3 23 64 ef bf 4d 4e 6a 39 d2 c5 00 c0
       -0.9809741441356989 -2.0965923772398924
000040 21 d8 59 af 96 f2 dc 3f 3a d2 07 29 88 49 cf 3f
       0.4523064339076673 0.24443151477284336
000050 e2 47 b3 86 0a f4 f7 3f f7 7d 77 3b c0 f7 d0 3f
       1.497080351040943 0.26512151534367895
000060 ef e7 63 24 fd 2c ee 3f 29 9c ce 19 f9 f5 e9 3f
       0.9429918013331625 0.8112760070843069
000070 94 c8 a6 b0 01 dc e8 3f 5f 63 fb f9 70 de bd bf
       0.7768562746262142 -0.11667543509555632
000080 f8 f8 58 bb a7 3f f9 3f a7 a4 c6 e5 7a d5 f4 bf
       1.5780408209098464 -1.3021191573737185
000090 40 a5 ce 2f d9 0c a1 3f c1 ad c1 0b 6a 59 fa 3f
       0.03330115040382475 1.6468296488991288
0000a0 44 4f 5a 73 4e 9a e3 3f a4 90 e4 f5 b9 96 da 3f
       0.612586236284621 0.4154496098801792
0000b0 31 58 c5 15 ff 00 e6 3f d2 c7 3d 7e c2 be f2 bf
       0.6876216340267601 -1.1715722018529857
0000c0 28 e2 92 25 b8 99 da bf af 9f a6 f2 70 4d f0 3f
       -0.4156322829180987 1.0189065435933846
0000d0 04 92 5b 69 64 76 c7 3f ea 49 ec df a4 44 ec bf
       0.18330054420870578 -0.8833793996330404
0000e0 88 14 09 20 cd f0 e8 3f a1 b4 95 1b 58 b2 f7 3f
       0.7793946862881436 1.4810410573511847
0000f0 83 b1 7f 40 e4 65 f4 bf c2 c7 bd 9a c5 5c 00 c0
       -1.2748758811459033 -2.04529877559341
000100 b9 39 01 39 e4 28 e0 bf d3 ce 36 fb a5 44 e9 3f
       -0.5049916375517604 0.789629927303816
000110 ee 03 34 de 59 f0 ce 3f 1d 0d 14 0d db ba fb bf
       0.24170993184819117 -1.7331190596458506
000120 34 4e 8c d7 17 06 00 c0 eb 3e 8c 0b d3 6a f7 3f
       -2.00297516247681 1.4635801745497996
000130 69 dd b5 ac 48 ad f3 bf a3 4b 7f a1 91 c7 d3 bf
       -1.229805636072195 -0.3090557171937524
000140 d4 cf 10 32 8b ee e7 3f fd 23 21 f7 6c c5 ab 3f
       0.7478691079945698 0.0542406131431292
000150 52 ae 12 21 7d c7 ec bf 18 fe 60 a7 1c 36 e7 3f
       -0.899351658435487 0.7253554600828833
000160 03 73 1b 69 88 77 fc 3f 84 9f 4b f6 6e d0 ec bf
       1.779182825636952 -0.9004435358483396
000170 a1 6f 48 59 dc ab fb bf 56 3b ba ed ea 0c c7 bf
       -1.7294581878295292 -0.1800817166117336
000180 3e 86 7a 96 ed 0c b7 bf 30 dd 38 6a d7 81 d2 3f
       -0.0900410168055936 0.2891748940778198
000190 0a 77 ba 46 16 d2 f3 bf 8b dd 95 ee 63 14 ed bf
       -1.2387907755687046 -0.9087390575286219
0001a0 76 50 c5 77 e0 04 c2 3f 5c 95 cb d2 85 29 a3 3f
       0.1407738289659652 0.037426168424455425
0001b0 bf 6d 2a 4c 4e 1c ab 3f 41 b5 d9 e3 9b 45 80 bf
       0.052950331494880036 -0.007945268526976636
0001c0 00 10 b0 2e 67 8d de 3f 6c eb 33 62 ba 31 e0 3f
       0.47738055762624754 0.5060703199409153
0001d0 80 2f 22 f0 55 b8 e2 3f 35 b2 c8 f9 08 bf e3 bf
       0.5850019159420157 -0.6170697096436643
0001e0 52 b7 50 2e 8a a6 c2 3f ee 70 6f e5 c1 8f de 3f
       0.14570739041794895 0.47752425580780666
0001f0 e6 66 22 e6 72 15 d4 bf 0d f4 0d de 11 e2 f0 bf
       -0.3138091323286133 -1.0551928209308727
000200 70 bc f4 b7 33 f3 88 bf 74 47 c7 ea ab 76 e0 3f
       -0.012182621051208126 0.514486273337964
000210 bc e8 03 49 bc a4 e8 bf e2 66 d3 23 33 68 d1 bf
       -0.7701093126372807 -0.27198484896289987
000220 05 bc a5 f3 b7 1b e0 3f 66 b3 c3 ba 7f 1d ca bf
       0.5033836134660993 -0.20402523631437502
000230 22 bd 85 b7 b3 9a d4 bf af 38 ad 3c 67 4a e0 3f
       -0.32194226190672925 0.5090824303713556
000240 9e 94 73 99 3b 44 e4 3f f2 b7 1d b2 c8 4d f4 bf
       0.6333292004680009 -1.268990226522416
000250 74 20 01 4f aa c4 bc 3f 0c a3 32 d2 67 2c 98 3f
       0.11237587384050746 0.023606893734412757
000260 78 8c df 44 b0 de fd bf 95 c4 ee 93 0e 8d 66 3f
       -1.8668673220024896 0.002752808067690691
000270 a2 80 61 03 a4 71 d8 3f 74 78 4d e6 29 e5 e7 3f
       0.3819360764519023 0.7467240808580429
000280 ae 37 22 4d d8 98 e1 bf 15 bd 63 05 5f 09 ea 3f
       -0.5499078279988134 0.8136439423814489
000290 a0 46 80 a4 38 b7 c5 bf 14 f2 38 1c f7 55 f1 bf
       -0.16965396911887343 -1.0834876158179485
0002a0 65 0e 8d 66 ea 0e e4 bf 34 1e dc 88 54 2b f0 3f
       -0.6268207552861439 1.010578665360197
0002b0 4b fb a2 b7 f1 b1 e7 bf fa 6f c0 81 c8 dc e6 bf
       -0.7404717051175366 -0.7144510778630313
0002c0 df f5 2c 80 d8 a9 e7 3f 7f 66 52 ff dc 5a a0 bf
       0.7394831183843812 -0.03194323174211621
0002d0 ce 15 b8 ea d4 e7 b6 3f f2 19 99 84 2a 48 f8 3f
       0.08947497110792499 1.5176186732875263
0002e0 3b c0 fe 9a 8f 10 b6 3f 9f 5b 8b f4 a6 8a ea 3f
       0.0861902001768166 0.8294253135926403
0002f0 b7 b2 56 ce a1 ea f2 bf eb d2 01 ab 3d 6e ba bf
       -1.1822832164863664 -0.10324464249590519
000300 61 c3 ae 85 04 f6 d3 bf 8c 6e 8e fd 75 93 bd bf
       -0.31189072661350364 -0.11553132477132005
000310 10 59 41 f5 8a e5 c5 3f 68 63 e1 38 20 8d a8 bf
       0.17106759047846554 -0.047951704924975413
000320 a8 59 04 fe a5 95 e0 3f 02 92 1d b2 ba 65 c4 3f
       0.5182676278371234 0.15935453125997873
000330 cc 8b 0f 24 d8 83 e6 3f ff 72 2f c7 58 06 f5 bf
       0.7035942749320099 -1.31404950911309
000340 1a 94 dc 25 55 aa f6 3f 4b f8 4a c6 9b e7 d4 3f
       1.4165851096124755 0.3266362606481194
000350 35 27 86 ed 63 2f f0 bf f7 9c 81 26 6e 53 de bf
       -1.0115699079783103 -0.4738421798742389
000360 17 f8 6c 4f 10 3f a9 3f f2 17 54 bb 21 14 ba 3f
       0.04930926293899079 0.10186968635034058
000370 b7 43 f7 f6 4b 1a e7 3f 4b 43 51 26 a8 ac 05 c0
       0.721960050921658 -2.7093050950574358
000380 09 e7 78 5d 58 62 f6 3f c0 a1 fa 2b b9 ec f1 bf
       1.3990100528012042 -1.1202937810831912
000390 b8 29 e3 9f 50 f4 c3 3f 2b 9b a3 a4 de 28 91 3f
       0.15589340025901577 0.01675746803166615
0003a0 be 04 c9 3b 65 a4 e1 bf d9 39 31 1e 35 c6 e1 bf
       -0.5513178031616446 -0.5554452504819053
0003b0 d2 c2 c3 8f ba 22 df bf 36 a1 2b 3f 82 d6 8b bf
       -0.4864946750595155 -0.01359273677140092
0003c0 65 b5 d3 83 1d 4e e7 3f ec 4e be bb a7 7a e8 bf
       0.728285558199485 -0.7649725596297379
0003d0 06 93 20 1b e5 e0 f2 bf a5 77 32 8c 2c 8c ec bf
       -1.1799059924753137 -0.8921110857224802
0003e0 bc 7b 57 f6 41 69 b7 3f c3 1f 72 28 11 31 50 bf
       0.09144985450937687 -0.0009882609900006979
0003f0 47 38 be 4d 50 cb c4 bf 55 d7 11 5c 1b 27 e8 3f
       -0.16245464130446605 0.7547737882839366
000400 d8 7d 24 86 ee 49 f0 3f f2 3c 51 8f a2 8f d3 3f
       1.018049739832227 0.305641784628235
000410 1f 6c e3 a3 60 b3 ef bf 06 b6 45 d4 8f e3 d8 bf
       -0.9906466675705622 -0.3888892720195546
000420 fc a8 76 50 ca 3b d6 3f 6c ce 0d a9 4c d3 e0 bf
       0.3473993097092174 -0.525793390449008
000430 59 f1 5b b4 97 20 fb 3f e0 f2 0f e6 58 0c e3 bf
       1.6954571767119744 -0.5952572339443485
000440 f7 36 bd 73 61 ac e4 bf 17 d3 2f b8 8b 54 eb 3f
       -0.646042562535256 0.8540705296896672
000450 e3 1f 71 69 6b 8f ad 3f 2f f0 c3 2f f5 a8 01 c0
       0.05773482954151612 -2.2074989062948798
000460 85 b4 24 37 41 46 e6 bf 70 d7 ce d0 d9 2d cd bf
       -0.6960760190028316 -0.22796175666524787
000470 ca a9 13 d1 43 23 cf bf 03 b3 4e 1a 23 7e f3 3f
       -0.24326369961575117 1.218295195353847
000480 89 ef 1b af 0f 40 f0 bf 45 70 fb 85 d9 07 f5 bf
       -1.015639957447066 -1.3144164308241824
000490 60 b1 cd 45 81 4d dd 3f 76 d8 0f 42 5e 2c f1 bf
       0.45785552803751806 -1.073332078985485
0004a0 f8 53 6f 42 c8 f5 d3 3f 44 5b e8 55 bc 97 01 40
       0.31187635886936915 2.199089690354784
0004b0 8b 42 0f e7 2c 26 ec bf 31 48 7b 49 89 4d e8 bf
       -0.879660083092021 -0.7594648776232643
0004c0 15 89 e7 03 eb 6c b8 3f 2c 73 b8 81 f0 c6 02 c0
       0.09541195721934444 -2.3471384176649703
0004d0 42 fe 66 dd d5 f3 ca bf c6 db e5 11 3d 10 fe 3f
       -0.21056626616153734 1.8789644908081171
0004e0 33 e6 73 e5 ee ac ec 3f da ee e3 94 c1 48 e5 bf
       0.8961100083826693 -0.6651313694014462
0004f0 ed 72 9f ef c7 9a e8 3f da f2 fe e1 a1 7f e0 3f
       0.7688941650518167 0.5155801214201248
000500 a4 25 e1 bd bc ea e9 bf 31 41 da 95 94 7a 81 3f
       -0.8099044521888357 0.00853458483041489
000510 27 d2 60 c5 ed 58 b4 3f 71 00 20 c3 7d f0 d6 bf
       0.07948194569400667 -0.35842842154671134
000520 94 2f db b9 7f a1 f5 bf 9a 19 7f cd 12 28 c8 3f
       -1.3519284496314627 0.18872294458396938
000530 05 f4 67 61 0f 61 d0 bf 5c d7 97 3f f9 64 d0 bf
       -0.2559240771514058 -0.25616294107691373
000540 2f a9 2b 9e 98 55 e2 3f 89 e2 93 c5 b7 f2 9c 3f
       0.5729487504261551 0.028269645151314058
000550 0e c2 94 d5 74 9a e6 3f 34 8a 3b 25 df c5 d1 bf
       0.7063545390611254 -0.27770212779992964
000560 9d 65 c5 44 1d 9d a3 bf 8c 28 97 78 85 30 c3 bf
       -0.03830806221476311 -0.14991825473982023
000570 d1 48 b8 85 4d 37 e4 bf 70 a8 b2 f3 d8 42 9d bf
       -0.6317508327213323 -0.02857531535543284
000580 7d 0f e3 93 cd 9f d9 3f c8 89 1d bc bc a6 c9 3f
       0.4003786033829256 0.20040091691323725
000590 09 72 e7 49 78 08 f4 bf 83 c9 f1 bc 83 07 e8 3f
       -1.252067841232135 0.7509173097917458
0005a0 38 51 fa 12 65 f6 f4 bf 76 7a 31 fe ab 66 d0 bf
       -1.310154985553778 -0.25626659225046156
0005b0 50 0c 3b f7 55 2c c3 3f ec 26 b2 e3 1b 05 f1 bf
       0.14979052135285764 -1.063747300564894
0005c0 26 71 19 f0 c7 73 f8 bf 1b b7 dd 2f c9 4c 82 bf
       -1.528266847503866 -0.00893551995587987
0005d0 83 85 84 58 ad 55 f6 bf 80 5c 70 e3 e0 1f f9 bf
       -1.3959172685357266 -1.5702828296978453
0005e0 86 e1 66 e9 0e 04 e1 bf 74 e6 36 74 64 cd db bf
       -0.531745391715092 -0.4344111571223046
0005f0 d6 d4 c6 e3 09 71 f2 bf fb dc c3 04 da 7f b0 3f
       -1.152597322228123 0.06445086113295766
000600 c3 b3 1d 6d 78 b7 f0 3f c7 0f 56 35 4b 72 b2 3f
       1.044792581781835 0.07205648471977986
000610 88 fd f1 47 06 07 ed 3f 36 9a 66 16 a3 7b f0 3f
       0.9071074872189664 1.030184829238022
000620 e7 07 a3 89 8b 3a ea bf 2c ac 8e 5a 8c bc bf 3f
       -0.8196466148585814 0.12397076807853641
000630 b7 f6 3a a5 46 12 d4 bf c0 74 44 da 63 f6 08 40
       -0.3136154759957707 3.120307641233552
000640 9d ff 74 01 4b 9f 0b c0 9b 73 8a 31 6d 89 f1 bf
       -3.4527797807531457 -1.0960514006794486
000650 6a 19 f8 65 d9 64 eb 3f d5 9f 40 b5 28 4e e7 3f
       0.85606069484565 0.7282908954703041
000660 bf 7e 78 cf 69 5f fc bf 02 ac 59 70 e2 98 c3 3f
       -1.773294268066749 0.1531031654916149
000670 21 ce 51 ff 45 f1 c7 bf 09 5e 43 9a 6d 6a e6 bf
       -0.18705058066153504 -0.7004917157127589
000680 2e b6 07 a5 00 2c e5 bf 9e 4b 4b ab 0d 85 e9 bf
       -0.6616214011425592 -0.7974918695057231
000690 8f b8 06 bc b2 45 ad 3f 75 3d 8e 4d b7 7a c5 3f
       0.05717237992517809 0.1678074959458901
0006a0 cd 36 74 d5 2d 74 b5 bf f9 dd cd 3c 9e 10 ec 3f
       -0.08380400143888807 0.8770285785275852
0006b0 75 66 a0 4e 87 3b 00 40 1d 4e 31 31 89 fd ca 3f
       2.029066671628977 0.21086230184538204
0006c0 1e a5 da 61 5c 7f f7 bf a2 ad 94 1d b7 7f ea 3f
       -1.4685939619469717 0.8280902459859372
0006d0 cb dc 8b 57 41 63 ca 3f 85 66 f4 22 a8 24 e7 bf
       0.20615402960513615 -0.7232247050007606
0006e0 e2 37 eb 9d 49 71 e3 3f b2 ee 1c 9f c4 e6 e7 3f
       0.6075790485717756 0.7469199283290975
0006f0 33 8d 40 b0 d6 33 c3 bf 28 6a 4d 21 20 13 f6 bf
       -0.15001948934614404 -1.3796693135142366
000700 de 52 b4 9a f2 d2 e9 3f a7 8c 15 31 b7 c9 f7 bf
       0.8070004483766657 -1.4867469708777123
000710 37 5d 0b 21 2e c5 c5 3f 8a 04 fb 5e a5 8f ef bf
       0.17007996190543803 -0.9862849097336419
000720 c0 ed 0b 5f 37 a0 d3 3f 40 47 dc 2e a3 66 f8 bf
       0.30665382654089157 -1.5250579672323994
000730 5c 95 1c 9c 33 7f f2 bf c4 5f c0 88 2c 05 b6 bf
       -1.156055078326367 -0.08601644838961336
000740 70 d5 71 8e ca 8d fa 3f df fc 8b a9 f4 d0 a1 bf
       1.6596170009846354 -0.03479733056701106
000750 b3 fb 54 d5 a1 d0 f5 bf cd ac f4 cd 24 a1 ea bf
       -1.3634355862884433 -0.8321708700726959
000760 13 64 1b 3d c4 dd e1 bf c0 86 e9 a4 bb 9e de 3f
       -0.558321112966157 0.4784382925482582
000770 5c b5 c8 c9 4e a3 d6 bf 41 f0 af f5 3c 77 eb 3f
       -0.35371751504393045 0.8583054350451748
000780 b0 1d 52 9b a4 f8 eb bf 9a 2c 02 cc b5 ed f6 bf
       -0.8741019281014157 -1.4330347031671296
000790 c2 53 d6 0f 30 d7 00 40 26 ca 26 33 36 32 f7 bf
       2.105072139480826 -1.4497587202173547
0007a0 5c a5 2f 47 d6 ba 01 40 18 06 62 d6 db 73 cb 3f
       2.2162290154853235 0.21447322814860637
0007b0 fb 97 ce 86 c6 c2 d2 3f 8e 07 5c 8c 05 45 df 3f
       0.2931381527399705 0.48858774859410736
0007c0 c9 f2 ea 9e 9d 65 cc 3f c6 63 91 b5 c0 d4 ea 3f
       0.22185106525093648 0.8384707971809966
0007d0 a8 25 95 d9 62 6d dd bf 8f 80 5c 70 b7 0f 03 40
       -0.4598013996915946 2.3826741007069994
0007e0 9d 21 ff 48 7d 6a e5 3f 47 4b 54 46 0a 68 d6 3f
       0.6692491937365507 0.3501001059350312
0007f0 77 53 ce 8c 99 97 f1 3f 38 be f9 33 ab 70 f0 3f
       1.099511671088491 1.0275070219321503
